…
2023-04-04 22:35:40 | INFO :  --- Model config: -------------------------------------------- 
2023-04-04 22:35:40 | INFO : Model: basic_cnn_segm_sigmoid
2023-04-04 22:35:40 | INFO : Model parameters: {'n_chan_input': 6, 'n_chan_layers': [20, 20, 10, 1], 'n_bins_in': 216, 'n_bins_out': 72, 'a_lrelu': 0.3, 'p_dropout': 0.2}
2023-04-04 22:35:41 | INFO : 
==========================================================================================
Layer (type:depth-idx)                   Output Shape              Param #
==========================================================================================
basic_cnn_segm_sigmoid                   [1, 1, 100, 72]           --
├─LayerNorm: 1-1                         [1, 174, 6, 216]          2,592
├─Sequential: 1-2                        [1, 20, 174, 216]         --
│    └─Conv2d: 2-1                       [1, 20, 174, 216]         27,020
│    └─LeakyReLU: 2-2                    [1, 20, 174, 216]         --
│    └─MaxPool2d: 2-3                    [1, 20, 174, 216]         --
│    └─Dropout: 2-4                      [1, 20, 174, 216]         --
├─Sequential: 1-3                        [1, 20, 174, 72]          --
│    └─Conv2d: 2-5                       [1, 20, 174, 72]          3,620
│    └─LeakyReLU: 2-6                    [1, 20, 174, 72]          --
│    └─MaxPool2d: 2-7                    [1, 20, 174, 72]          --
│    └─Dropout: 2-8                      [1, 20, 174, 72]          --
├─Sequential: 1-4                        [1, 10, 100, 72]          --
│    └─Conv2d: 2-9                       [1, 10, 100, 72]          15,010
│    └─LeakyReLU: 2-10                   [1, 10, 100, 72]          --
│    └─Dropout: 2-11                     [1, 10, 100, 72]          --
├─Sequential: 1-5                        [1, 1, 100, 72]           --
│    └─Conv2d: 2-12                      [1, 1, 100, 72]           11
│    └─LeakyReLU: 2-13                   [1, 1, 100, 72]           --
│    └─Dropout: 2-14                     [1, 1, 100, 72]           --
│    └─Conv2d: 2-15                      [1, 1, 100, 72]           2
│    └─Sigmoid: 2-16                     [1, 1, 100, 72]           --
==========================================================================================
Total params: 48,255
Trainable params: 48,255
Non-trainable params: 0
Total mult-adds (G): 1.17
==========================================================================================
Input size (MB): 0.90
Forward/backward pass size (MB): 10.51
Params size (MB): 0.19
Estimated Total Size (MB): 11.61
==========================================================================================
…
